…
["# Model summary"],"metadata":{"id":"cOpDHwBqaA4o"}},{"cell_type":"code","source":["print(model)"],"metadata":{"id":"4J9lRwiPWXE7","colab":{"base_uri":"https://localhost:8080/"},"executionInfo":{"status":"ok","timestamp":1683112976216,"user_tz":-420,"elapsed":14,"user":{"displayName":"christian bennett robin","userId":"11935369915464793717"}},"outputId":"59fcf93c-8f68-454c-be8d-c2ab6a6a3cd0"},"execution_count":null,"outputs":[{"output_type":"stream","name":"stdout","text":["BertForSequenceClassification(\n","  (bert): BertModel(\n","    (embeddings): BertEmbeddings(\n","      (word_embeddings): Embedding(31923, 768, padding_idx=0)\n","      (position_embeddings): Embedding(512, 768)\n","      (token_type_embeddings): Embedding(2, 768)\n","      (LayerNorm): LayerNorm((768,), eps=1e-12, elementwise_affine=True)\n","      (dropout): Dropout(p=0.1, inplace=False)\n","    )\n","    (encoder): BertEncoder(\n","      (layer): ModuleList(\n","        (0-11): 12 x BertLayer(\n","          (attention): BertAttention(\n","            (self): BertSelfAttention(\n","              (query): Linear(in_features=768, out_features=768, bias=True)\n","              (key): Linear(in_features=768, out_features=768, bias=True)\n","              (value): Linear(in_features=768, out_features=768, bias=True)\n","              (dropout): Dropout(p=0.1, inplace=False)\n","            )\n","            (output): BertSelfOutput(\n","              (dense): Linear(in_features=768, out_features=768, bias=True)\n","              (LayerNorm): LayerNorm((768,), eps=1e-12, elementwise_affine=True)\n","              (dropout): Dropout(p=0.1, inplace=False)\n","            )\n","          )\n","          (intermediate): BertIntermediate(\n","            (dense): Linear(in_features=768, out_features=3072, bias=True)\n","            (intermediate_act_fn): GELUActivation()\n","          )\n","          (output): BertOutput(\n","            (dense): Linear(in_features=3072, out_features=768, bias=True)\n","            (LayerNorm): LayerNorm((768,), eps=1e-12, elementwise_affine=True)\n","            (dropout): Dropout(p=0.1, inplace=False)\n","          )\n","        )\n","      )\n","    )\n","    (pooler): BertPooler(\n","      (dense): Linear(in_features=768, out_features=768, bias=True)\n","      (activation): Tanh()\n","    )\n","  )\n","  (dropout): Dropout(p=0.1, inplace=False)\n","  (classifier): Linear(in_features=768, out_features=7, bias=True)\n",")\n"]}]},{"cell_type":"code","source":["from torchsummary import summary\n","\n","summary(model)"],"metadata":{"id":"rvAdCO1hVtBw","colab":{"base_uri":"https://localhost:8080/"},"executionInfo":{"status":"ok","timestamp":1683112976216,"user_tz":-420,"elapsed":13,"user":{"displayName":"christian bennett robin","userId":"11935369915464793717"}},"output
…
